speech_classification/vowel_cnn.pth (torch, 220781 bytes, 6 tensors)

conv.0.weight f4 [16, 1, 3, 3]
-0.117187604 -0.1764699 0.30934414 -0.25288776 0.12469238 -0.14082015 -0.0076540494 0.20706132
-0.2559842 0.10549587 0.30169702 -0.026588881 -0.08434835 -0.16986367 -0.28893366 -0.30782425
-0.24129014 0.16014571 0.015412696 0.09921894 0.0584581 -0.31150916 0.050581567 -0.11575795
0.27728873 -0.261236 -0.34127563 -0.25992787 -0.23388755 -0.0029654903 0.06655762 0.3510371
0.23286411 -0.29241428 -0.15115948 -0.005993266 0.118728966 0.15044999 0.27989727 0.29434496
0.015686022 0.077463284 0.25640652 -0.26398897 0.2840004 0.28985828 -0.029426701 0.3238245
0.36242062 -0.11739961 0.039932296 0.0778498 0.0005423422 -0.0849639 0.16817988 0.1773243
0.34142044 0.38473317 0.3625907 -0.105460726 -0.028580105 0.27191016 0.12129101 -0.053757098
0.06794355 -0.29759687 0.034827955 -0.19841613 -0.2485314 0.108798906 -0.26715544 0.29254282
-0.19679298 -0.27838662 -0.35743245 0.24185058 0.13277088 -0.15433447 -0.21569622 0.027103515
0.27424365 -0.14452912 0.31762394 -0.17096925 -0.10366244 0.282082 -0.19639526 -0.21977147
0.16064766 -0.15366748 -0.1779284 0.21542291 0.015297507 0.14480332 -0.3063383 -0.2901834
-0.14572832 0.050268617 -0.16300525 -0.18500657 0.022137566 -0.19794899 0.16495708 0.3171578
0.029783297 -0.15983395 -0.024462538 -0.16279808 0.13277216 -0.18742988 0.21267124 0.24874833
-0.038523886 0.1509974 0.031794365 0.11483909 -0.046571366 -0.2356255 0.35343045 0.29251522
0.14375675 0.12023095 0.05570352 0.30831546 0.25236624 0.15620245 -0.34224683 -0.20196019
-0.22094516 -0.29417583 -0.09657261 -0.33903402 0.14603621 0.056770656 -0.09909865 0.14433275
0.30336314 0.15001662 0.23539527 0.20797318 -0.093700804 -0.17433412 0.3545096 0.1025617
00000000: 0e00 f0bd 87b4 34be 5b62 9e3e 817a 81be
00000010: b85e ff3d 2833 10be d2ce fabb e207 543e
00000020: 5c10 83be 380e d83d 0878 9a3e edd0 d9bc
00000030: d4be acbd bef0 2dbe 1def 93be 249b 9dbe
00000040: c314 77be 3dfd 233e 8885 7c3c 4d33 cb3d
00000050: c371 6f3d 217e 9fbe 9e2e 4f3d 8112 edbd
00000060: caf8 8d3e bac0 85be aebb aebe 4415 85be
00000070: 3880 6fbe ac58 42bb 5d4f 883d 23bb b33e
00000080: ee73 6e3e 53b7 95be 8dc9 1abe 2963 c4bb
00000090: 2c28 f33d 900f 1a3e b24e 8f3e 62b4 963e
000000a0: f97f 803c 12a5 9e3d b747 833e 9029 87be
000000b0: 8068 913e 4e68 943e 4410 f1bc 53cc a53e
000000c0: 328f b93e 356f f0bd 0c90 233d b76f 9f3d
000000d0: f82b 0e3a 8e01 aebd 5937 2c3e 8094 353e
000000e0: a9ce ae3e bffb c43e 7da5 b93e cbfb d7bd
000000f0: d320 eabc cf37 8b3e 6c67 f83d 6730 5cbd
00000100: fd25 8b3d 9e5e 98be c2a7 0e3d 992d 4bbe
00000110: 047f 7ebe f6d1 de3d 99c8 88be 2cc8 953e
00000120: 1984 49be b188 8ebe 6301 b7be aea7 773e
00000130: 17f5 073e db09 1ebe 78df 5cbe 3108 de3c
00000140: aa69 8c3e 71ff 13be 9b9f a23e 9012 2fbe
00000150: f94c d4bd 0d6d 903e d71b 49be c60b 61be
00000160: d280 243e 025b 1dbe dd32 36be d397 5c3e
00000170: 65a2 7a3c 5247 143e 60d8 9cbe eb92 94be
00000180: ce39 15be 77e6 4d3d d9ea 26be 5d72 3dbe
00000190: d759 b53c 24b3 4abe 82ea 283e 8262 a23e
000001a0: 1afc f33c 83ab 23be a965 c8bc 8ab4 26be
000001b0: 6df5 073e 9eed 3fbe 7dc6 593e e2b7 7e3e
000001c0: 39cb 1dbd 109f 1a3e cf3a 023d c230 eb3d
000001d0: 9ec1 3ebd d047 71be d6f4 b43e 8ec4 953e
000001e0: f834 133e a53b f63d 6029 643d 86db 9d3e
000001f0: 2636 813e 89f3 1f3e fa3a afbe a7ce 4ebe
00000200: 733f 62be 379e 96be dcc7 c5bd de95 adbe
00000210: 848a 153e 5988 683d 3cf4 cabd f7cb 133e
00000220: 6a52 9b3e f59d 193e 750b 713e ecf6 543e
00000230: 35e6 bfbd a584 32be 4882 b53e de0b d23d

conv.0.bias f4 [16]
0.11650881 0.21827458 0.07034832 -0.069205746 -0.028579742 0.03534051 0.19974831 0.15084292
0.27042484 -0.30232912 0.30231845 0.18054785 0.24196085 0.14254084 0.27139652 0.023588266
00000000: 2c9c ee3d 5f83 5f3e c812 903d bebb 8dbd
00000010: 1020 eabc 36c1 103d d28a 4c3e 9176 1a3e
00000020: 2075 8a3e e2ca 9abe 7cc9 9a3e 89e1 383e
00000030: 96c4 773e 3af6 113e 7cf4 8a3e 2e3c c13c

conv.3.weight f4 [32, 16, 3, 3]
-0.00084585615 0.031120745 0.08934342 -0.042988356 -0.060072295 -0.052074503 0.004816302 -0.024250321
-0.030877762 0.024299541 -0.020062787 0.044585362 -0.076587126 0.0010350079 -0.079278 -0.056216273
0.09260851 0.0024889526 -0.040010035 -0.042902865 -0.07254343 0.051848553 -0.055639446 0.026456254
0.07332969 -0.07027532 -0.031818405 -0.018167755 -0.010158665 0.032432552 -0.052870907 0.036209796
0.04935114 -0.014558265 0.096162885 0.08611012 -0.10110033 0.044336952 -0.102753125 0.035405327
0.052718446 0.04832817 -0.02971236 0.04621801 -0.05191777 0.0040974715 -0.079321995 -0.033493374
-0.07759822 0.030413829 -0.03602749 0.09829407 -0.0018489864 -0.0021568886 -0.0058274628 -0.017129162
-0.0452647 -0.016124602 -0.023359865 -0.051401086 -0.06312577 0.061406266 0.035334595 -0.07025854
-0.056761596 -0.025935763 -0.011410646 0.011416558 -0.040037055 -0.0046308124 -0.005069163 -0.037223946
0.04450564 -0.02442985 0.0918856 0.07445454 0.068561696 0.021679623 0.09843761 -0.0009770428
0.040634044 0.049479898 -0.053249296 -0.07840709 -0.008405214 -0.07890567 -0.0017768035 -0.0071555017
-0.019364534 0.021264672 0.07099232 0.08601344 0.039381538 -0.054263324 0.0599558 0.007347017
-0.04623133 0.044615906 0.027129987 -0.004521571 0.07192405 -0.007490555 0.08331355 0.08096722
-0.024806479 -0.058418587 0.023034338 -0.04131348 0.05218177 0.09137856 0.02916229 0.039025538
-0.06152815 0.03143211 -0.034601495 0.07990035 -0.02955205 -0.06796839 -0.06406712 -0.041703407
0.09084676 0.08712914 -0.009933255 0.085813336 0.005853604 0.052131236 0.043711007 -0.02077134
0.090635076 0.008776307 0.07762422 -0.00555969 -0.033642653 -0.03958683 -0.0059317797 -0.09291582
-0.0031346376 -0.089252196 -0.065875806 0.058638394 -0.03021227 0.038435176 -0.023887832 0.035607338
0.010100327 -0.041752398 0.044656955 0.057397425 0.019092875 -0.0060181525 0.050903466 -0.034761153
-0.054532547 -0.061092038 -0.020796245 0.029508498 -0.040259644 -0.0715923 -0.076592274 -0.061847877
0.012379236 -0.011602896 -0.0035283086 -0.032469112 -0.04959909 -0.011129805 0.045895334 -0.047021724
-0.08508697 -0.0073618344 -0.027875116 -0.10969921 -0.1144561 -0.08254179 0.019853681 0.012414027
0.013482323 -0.0038770204 0.103744976 0.120432675 -0.0048398594 -0.02417235 0.046719994 0.06814047
0.023319004 0.07454717 0.037332345 0.04266 0.0037032696 0.023084734 -0.0634594 0.039598774
0.08920444 0.0763326 0.060315147 -0.031030137 -0.005152613 0.019302022 -0.068203814 -0.018776998
0.08731504 0.015045024 0.08477073 -0.030826524 0.10020084 0.084012255 0.036167953 0.06717083
-0.014112417 -0.030124629 -0.050544493 -0.05572224 -0.033635568 -0.05152482 -0.062160823 -0.06587225
0.011715381 -0.07321218 -0.020909395 -0.04299674 -0.08200033 -0.07751083 0.032650515 0.08660851
0.06410342 -0.00025606155 -0.0104079675 -0.047816616 0.033315282 -0.06073288 0.038133565 0.013951886
-0.004542182 -0.11193761 0.018137814 -0.017222153 0.06237066 -0.08403163 0.032842398 -0.07023761
0.07239287 0.01916386 0.0068993745 -0.07044683 0.00795683 -0.018883599 -0.065095074 0.054164015
0.06726418 -0.045900434 -0.001222861 0.05299606 -0.014676817 -0.0019229758 0.08159103 -0.052787133
00000000: 72bc 5dba eff0 fe3c aff9 b63d 8f14 30bd
00000010: 5e0e 76bd 134c 55bd 12d2 9d3b 9ca8 c6bc
00000020: 5cf3 fcbc d50f c73c b75a a4bc 249f 363d
00000030: b6d9 9cbd 1aa9 873a 815c a2bd 0943 66bd
00000040: 88a9 bd3d b21d 233b 90e1 23bd eaba 2fbd
00000050: a691 94bd 265f 543d 30e6 63bd c9ba d83c
00000060: e02d 963d 82ec 8fbd 0454 02bd 8bd4 94bc
00000070: 8770 26bc ffd7 043d 2a8f 58bd b950 143d
00000080: 6c24 4a3d ca85 6ebc 0cf1 c43d 815a b03d
00000090: b10d cfbd aa9a 353d 3b70 d2bd 2d05 113d
000000a0: 4cef 573d c2f3 453d 5667 f3bc 194f 3d3d
000000b0: baa7 54bd 1544 863b 9273 a2bd 5930 09bd
000000c0: d1eb 9ebd 6c26 f93c 9091 13bd 674e c93d
000000d0: b059 f2ba 965a 0dbb 4df4 bebb 7552 8cbc
000000e0: 7a67 39bd be17 84bc 305d bfbc f289 52bd
000000f0: 1548 81bd 2385 7b3d 02bb 103d b6e3 8fbd
00000100: d97e 68bd 3d77 d4bc b8f3 3abc 840c 3b3c
00000110: e5fd 23bd 12be 97bb 391b a6bb 2378 18bd
00000120: 8c4b 363d 1c21 c8bc 842e bc3d 9f7b 983d
00000130: 136a 8c3d 7799 b13c a899 c93d 1e10 80ba
00000140: e26f 263d 6fab 4a3d ef1b 5abd e593 a0bd
00000150: 06b6 09bc 4c99 a1bd a2e3 e8ba b378 eabb
00000160: 5fa2 9ebc 4033 ae3c 6c64 913d d027 b03d
00000170: 894e 213d 3843 5ebd 3794 753d 3fbf f03b
00000180: 105d 3dbd 2bbf 363d b53f de3c b029 94bb
00000190: eb4c 933d 5473 f5bb 4ba0 aa3d 24d2 a53d
000001a0: f536 cbbc 5448 6fbd 82b2 bc3c 5338 29bd
000001b0: 8dbc 553d af24 bb3d c1e5 ee3c 3ed9 1f3d
000001c0: f104 7cbd f5be 003d 4cba 0dbd cba2 a33d
000001d0: 2417 f2bc 0333 8bbd 9f35 83bd 31d1 2abd
000001e0: de0d ba3d c370 b23d 17bf 22bc e7be af3d
000001f0: 97cf bf3b 9087 553d 500a 333d a828 aabc
00000200: e29e b93d 80ca 0f3c 72f9 9e3d 0f2e b6bb
00000210: e1cc 09bd cd25 22bd 605f c2bb a64a bebd
00000220: 7e6e 4dbb dbc9 b6bd e5e9 86bd d02e 703d
00000230: b97f f7bc 346e 1d3d 6ab0 c3bc 00d9 113d
00000240: d87b 253c 9004 2bbd 36ea 363d 9019 6b3d
00000250: a968 9c3c ec33 c5bb 2780 503d b661 0ebd
00000260: 855d 5fbd a53b 7abd e35c aabc cebb f13c
00000270: 4ce7 24bd fc9e 92bd 69dc 9cbd 3354 7dbd
00000280: 47d2 4a3c 131a 3ebc 323b 67bb 55fe 04bd
00000290: 6a28 4bbd c959 36bc bffc 3b3d da99 40bd
000002a0: 1442 aebd 8b3b f1bb 5b5a e4bc fba9 e0bd
000002b0: f667 eabd ac0b a9bd 30a4 a23c 3464 4b3c
000002c0: f6e4 5c3c 9c15 7ebb 3f78 d43d 68a5 f63d
000002d0: af97 9ebb 1805 c6bc 775d 3f3d 3b8d 8b3d
000002e0: 7f07 bf3c 30ac 983d cde9 183d 41bc 2e3d
000002f0: 8eb2 723b 321c bd3c 00f7 81bd 5332 223d
00000300: d1b0 b63d 4454 9c3d 040d 773d ea32 febc
00000310: 40d7 a8bb 461f 9e3c 71ae 8bbd 38d2 99bc
00000320: 3ad2 b23d 687f 763c 479c ad3d e887 fcbc
00000330: 1936 cd3d 9e0e ac3d d924 143d dc90 893d
00000340: c437 67bc edc7 f6bc be07 4fbd 013d 64bd
00000350: 73c5 09bd b10b 53bd 599c 7ebd 08e8 86bd
00000360: dff1 3f3c 44f0 95bd 2e4a abbc 5a1d 30bd
00000370: caef a7bd ffbd 9ebd 8cbc 053d cd5f b13d
00000380: a748 833d 0040 86b9 2e86 2abc 5bdb 43bd
00000390: 9b75 083d 0ac3 78bd f131 1c3d 7496 643c
000003a0: 96d6 94bb 8c3f e5bd c195 943c 7915 8dbc
000003b0: 6178 7f3d c618 acbd c085 063d bcd8 8fbd
000003c0: b742 943d 87fd 9c3c 2614 e23b 6d46 90bd
000003d0: 5d5d 023c c7b1 9abc 9150 85bd 16db 5d3d
000003e0: cdc1 893d 1802 3cbd 6848 a0ba 6612 593d
000003f0: 0877 70bc 5c0c fcba 3319 a73d 5237 58bd

conv.3.bias f4 [32]
0.05035422 -0.008119621 0.009220386 -0.04149076 -0.002334775 0.06868716 0.06638689 0.06566764
0.060668316 0.022934204 -0.056428652 -0.0079960665 0.048948437 0.04269076 -0.01475161 0.08354515
-0.03241555 -0.0031469718 0.07449773 0.017236037 0.04002986 0.06280023 -0.076146014 0.012293048
0.028050436 -0.035722755 0.085333474 -0.005211955 -0.05809333 -0.013630849 -0.027187472 -0.010758239
00000000: 3a40 4e3d 2908 05bc 1a11 173c 37f2 29bd
00000010: 0603 19bb dbab 8c3d daf5 873d c17c 863d
00000020: 577f 783d 83e0 bb3c bb21 67bd ef01 03bc
00000030: 287e 483d 82dc 2e3d bdb0 71bc b819 ab3d
00000040: 2bc6 04bd 6d3d 4ebb 4492 983d 9732 8d3c
00000050: 5af6 233d 689d 803d 71f2 9bbd c868 493c
00000060: 07ca e53c 0652 12bd 51c3 ae3d 0cc9 aabb
00000070: 46f3 6dbd ed53 5fbc 43b8 debc 5343 30bc

fc.weight f4 [5, 9920]
0.00093016523 -0.011398274 -0.011331178 -0.0060468945 -0.0024619387 0.003717135 0.0020153981 0.004350734
0.010511085 -0.0020334953 -0.0034781548 0.008053622 0.003549046 0.00033523975 -0.0110193435 -0.008797451
0.004153532 -0.001045272 -0.0069277207 -0.007846354 0.0026777666 0.0065110675 0.0079283025 -0.006877638
0.008434724 -0.0074610678 0.0042567444 -0.0033487936 0.00188025 -0.0019889409 -0.0031676695 0.0067212493
0.013183782 0.018852893 0.029599749 0.0140573345 0.030801183 0.034375317 0.027599761 0.0133143915
0.034296032 0.03842997 0.018049438 0.021443836 0.01572536 0.021375477 0.017171582 0.016676005
0.0062965187 0.004332596 -0.0031370693 0.006938869 -0.0051836194 0.0064095785 -0.0010402434 -0.007840763
-0.005165794 0.006603495 -0.002429658 0.0069603613 -0.0032503982 0.0060900603 -0.0150249945 -0.022948667
-0.027067192 -0.028387913 -0.018838366 -0.012683778 -0.029040175 -0.01137723 -0.025576646 -0.018460426
-0.005618599 -0.016244652 -0.012244313 -0.016048266 -0.009008444 -0.009093726 -0.019014945 -0.014513971
-0.016138932 -0.010667806 -0.016754435 0.0064457385 0.009569579 -0.002208963 0.011803578 -0.0017464238
0.006231297 0.004905572 0.002038789 0.00581887 -0.0030382134 -0.00012674092 -0.01127845 -0.011592833
-0.008284756 -0.0014926693 -0.0013515203 -0.015852846 -0.016005136 -0.0034830552 -0.0007634968 -0.0077149943
0.0017788726 -0.0058853542 -0.0034256007 -0.005827422 -0.003965535 0.0143332 0.017657423 0.0065951385
0.010307309 0.010009927 0.010167201 0.004661047 -0.0005305269 -0.0004960651 0.0066951215 0.0057226215
0.011556943 0.005621108 0.0028797328 -0.0063454113 0.004916397 -0.008783997 -0.0011955239 0.009728571
0.0043557477 0.012297738 0.00837169 0.028019646 0.0055550975 0.008591235 -0.0077261617 0.0075137103
-0.008691286 0.0019308847 0.0002811154 -0.0068933056 -0.020057296 -0.0077582067 -0.008147789 -0.010354714
0.012435264 0.00097502087 0.014534116 -0.0044611664 0.0004464703 -0.002050104 -0.0063373186 -0.00249713
-0.0022984878 0.0055688526 -0.00024378748 0.0008186971 0.021733982 0.011182332 0.025600415 0.011817165
0.019223195 0.025135167 0.0045338646 0.015608417 0.019087989 0.021527503 0.019414809 0.024363022
0.012129895 0.017288534 0.022830794 0.019465951 0.00031983815 0.017000929 -0.0035695327 0.00085801654
0.008444445 0.01521477 0.0016563564 -0.002211521 0.005611754 0.010147473 0.0057058707 0.005174254
-0.0009508578 0.008477703 -0.0012186206 -0.0070979698 -5.539366e-05 0.006535746 0.0007644982 0.0025391025
-0.0022460062 0.014864205 0.0015284809 0.0045010173 0.006714091 0.0074815783 0.0035690006 -0.002034737
0.0026789075 -0.010000532 -0.0007014397 -0.004091205 0.0053693294 0.0005527235 -0.0026270922 0.01686953
0.009675226 0.0031940474 0.0089092245 0.0080489125 -0.0064252764 -0.007788493 0.0007276029 0.008224333
-0.0056132083 0.01366964 -0.020480406 -0.01239506 -0.020251311 -0.016061233 -0.009029638 -0.0077486495
-0.0045971354 -0.02016464 -0.017822593 -0.017206354 -0.015751522 -0.00890695 -0.005601029 -0.0010857899
-0.0010065787 0.0044759745 1.3087372e-05 -0.011575112 0.00080775353 0.01800519 0.017654113 0.0038407336
0.0065965047 0.009012832 0.0051727025 0.0025331047 0.008127888 0.0023933044 -0.0027946592 -0.0044025504
-0.012107855 0.0054961173 0.004301695 0.010407357 0.0076349475 0.012468778 0.008811789 0.0072706873
00000000: 55d6 733a d4bf 3abc 68a6 39bc 0725 c6bb
00000010: 7a58 21bb 2d9b 733b c514 043b 9a90 8e3b
00000020: b036 2c3c 6444 05bb c1f1 63bb 57f3 033c
00000030: 1d97 683b 1ec3 af39 7a8a 34bc 2f23 10bc
00000040: 5a1a 883b 8201 89ba ef01 e3bb fe8d 00bc
00000050: 787d 2f3b cb5a d53b b6e5 013c cf5d e1bb
00000060: cc31 0a3c f97b f4bb 297c 8b3b 6f77 5bbb
00000070: b972 f63a e458 02bb ad98 4fbb ed3d dc3b
00000080: ca00 583c 6271 9a3c 2c7b f23c bc50 663c
00000090: c352 fc3c 22cd 0c3d e518 e23c 9b24 5a3c
000000a0: ff79 0c3d bf68 1d3d 6adc 933c fcaa af3c
000000b0: 78d2 803c a01b af3c 6bab 8c3c 1e9c 883c
000000c0: 0753 ce3b 73f8 8d3b 4a97 4dbb 745f e33b
000000d0: 5adb a9bb 7107 d23b c758 88ba 8b76 00bc
000000e0: d245 a9bb 2262 d83b e63a 1fbb be13 e43b
000000f0: a204 55bb 218f c73b 652b 76bc d8fe bbbc
00000100: 04bc ddbc c58d e8bc eb52 9abc 9fcf 4fbc
00000110: a9e5 edbc 9067 3abc 1d86 d1bc 523a 97bc
00000120: 391c b8bb 8113 85bc 5f9c 48bc a777 83bc
00000130: 2798 13bc dafd 14bc 3bc5 9bbc 02cc 6dbc
00000140: cb35 84bc 05c8 2ebc 9940 89bc c636 d33b
00000150: b9c9 1c3c 40c4 10bb cb63 413c 42e8 e4ba
00000160: e82f cc3b ecbe a03b 349d 053b 38ac be3b
00000170: c31c 47bb c2e5 04b9 3fc9 38bc deef 3dbc
00000180: c9bc 07bc aca5 c3ba 7f25 b1ba d4dd 81bc
00000190: 341d 83bc f843 64bb 6725 48ba 10ce fcbb
000001a0: 0f29 e93a eed9 c0bb 0b80 60bb f5f3 bebb
000001b0: 52f1 81bb ccd5 6a3c 4da6 903c 081c d83b
000001c0: fddf 283c ad00 243c 5594 263c b2bb 983b
000001d0: 0f13 0bba 5e0a 02ba c062 db3b d484 bb3b
000001e0: 5559 3d3c 4631 b83b e6b9 3c3b 2bed cfbb
000001f0: ba19 a13b c1ea 0fbc 20b3 9cba 9664 1f3c
00000200: a9ba 8e3b 747c 493c 6a29 093c 7589 e53c
00000210: 8907 b63b 40c2 0c3c be2b fdbb 9235 f63b
00000220: e565 0ebc bd15 fd3a ac62 9339 3de1 e1bb
00000230: 334f a4bc 8e38 febb 4e7e 05bc d1a6 29bc
00000240: 47bd 4b3c 8b98 7f3a 8020 6e3c fa2e 92bb
00000250: 3b14 ea39 0a5b 06bb 48a9 cfbb e4a6 23bb
00000260: 3aa2 16bb ec7a b63b 34a1 7fb9 d59d 563a
00000270: 770b b23c 1a36 373c f6b7 d13c c89c 413c
00000280: f679 9d3c 44e8 cd3c d090 943b 72ba 7f3c
00000290: 6a5e 9c3c 725a b03c ce0b 9f3c f694 c73c
000002a0: 78bc 463c afa0 8d3c a507 bb3c 0f77 9f3c
000002b0: f3af a739 8845 8b3c d2ee 69bb 84ec 603a
000002c0: 925a 0a3c 5f47 793c 191a d93a 2aef 10bb
000002d0: cee2 b73b 9641 263c 50f8 ba3b ca8c a93b
000002e0: fd42 79ba 10e6 0a3c 1fba 9fba 1696 e8bb
000002f0: 7d56 68b8 d029 d63b 9b68 483a 1267 263b
00000300: bb31 13bb ff88 733c 4f57 c83a 457d 933b
00000310: e101 dc3b 0728 f53b e5e5 693b 3959 05bb
00000320: 9c90 2f3b 45d9 23bc d2e0 37ba 840f 86bb
00000330: 33f1 af3b a5e4 103a 4b2b 2cbb f831 8a3c
00000340: d784 1e3c 3953 513b fff7 113c 96df 033c
00000350: 208b d2bb 9d36 ffbb 9bbc 3e3a 5abf 063c
00000360: 01ef b7bb a0f6 5f3c 86c6 a7bc a614 4bbc
00000370: 14e6 a5bc d992 83bc 0cf1 13bc 62e8 fdbb
00000380: 91a3 96bb 5130 a5bc b000 92bc 57f4 8cbc
00000390: 5609 81bc 75ee 11bc d688 b7bb 1051 8eba
000003a0: 2def 83ba 32ab 923b d691 5b37 8aa5 3dbc
000003b0: 6cbf 533a 9f7f 933c 5c9f 903c d1b4 7b3b
000003c0: 7e27 d83b 8faa 133c c67f a93b 7202 263b
000003d0: d52a 053c fcd8 1c3b 9a26 37bb 4543 90bb
000003e0: 0660 46bc c618 b43b 3cf5 8c3b 9e83 2a3c
000003f0: 952e fa3b d849 4c3c 525f 103c f23e ee3b

fc.bias f4 [5]
0.005225674 0.0021559435 0.0061709187 -0.0022651935 0.0066968403
00000000: 213c ab3b bb4a 0d3b 6b35 ca3b a473 14bb
00000010: 2b71 db3b
